{"class_name": "Sequential", "config": {"name": "sequential_1", "layers": [{"class_name": "Conv2D", "config": {"use_bias": true, "trainable": true, "padding": "same", "strides": [1, 1], "dilation_rate": [1, 1], "kernel_initializer": {"class_name": "VarianceScaling", "config": {"distribution": "uniform", "mode": "fan_avg", "scale": 1.0, "seed": null}}, "activation": "relu", "bias_constraint": null, "kernel_constraint": null, "bias_regularizer": null, "activity_regularizer": null, "dtype": "float32", "kernel_regularizer": null, "filters": 20, "name": "conv2d_1", "data_format": "channels_last", "bias_initializer": {"class_name": "Zeros", "config": {}}, "batch_input_shape": [null, 20, 20, 1], "kernel_size": [7, 7]}}, {"class_name": "MaxPooling2D", "config": {"trainable": true, "padding": "valid", "dtype": "float32", "strides": [2, 2], "name": "max_pooling2d_1", "pool_size": [2, 2], "data_format": "channels_last"}}, {"class_name": "Conv2D", "config": {"use_bias": true, "trainable": true, "padding": "same", "strides": [1, 1], "dilation_rate": [1, 1], "kernel_initializer": {"class_name": "VarianceScaling", "config": {"distribution": "uniform", "mode": "fan_avg", "scale": 1.0, "seed": null}}, "activation": "relu", "bias_constraint": null, "kernel_constraint": null, "bias_regularizer": null, "activity_regularizer": null, "dtype": "float32", "kernel_regularizer": null, "filters": 50, "name": "conv2d_2", "data_format": "channels_last", "bias_initializer": {"class_name": "Zeros", "config": {}}, "kernel_size": [5, 5]}}, {"class_name": "MaxPooling2D", "config": {"trainable": true, "padding": "valid", "dtype": "float32", "strides": [2, 2], "name": "max_pooling2d_2", "pool_size": [2, 2], "data_format": "channels_last"}}, {"class_name": "Conv2D", "config": {"use_bias": true, "trainable": true, "padding": "same", "strides": [1, 1], "dilation_rate": [1, 1], "kernel_initializer": {"class_name": "VarianceScaling", "config": {"distribution": "uniform", "mode": "fan_avg", "scale": 1.0, "seed": null}}, "activation": "relu", "bias_constraint": null, "kernel_constraint": null, "bias_regularizer": null, "activity_regularizer": null, "dtype": "float32", "kernel_regularizer": null, "filters": 50, "name": "conv2d_3", "data_format": "channels_last", "bias_initializer": {"class_name": "Zeros", "config": {}}, "kernel_size": [3, 3]}}, {"class_name": "MaxPooling2D", "config": {"trainable": true, "padding": "valid", "dtype": "float32", "strides": [2, 2], "name": "max_pooling2d_3", "pool_size": [2, 2], "data_format": "channels_last"}}, {"class_name": "Flatten", "config": {"name": "flatten_1", "trainable": true, "data_format": "channels_last", "dtype": "float32"}}, {"class_name": "Dense", "config": {"use_bias": true, "trainable": true, "bias_initializer": {"class_name": "Zeros", "config": {}}, "kernel_initializer": {"class_name": "VarianceScaling", "config": {"distribution": "uniform", "mode": "fan_avg", "scale": 1.0, "seed": null}}, "activation": "relu", "bias_constraint": null, "kernel_constraint": null, "bias_regularizer": null, "activity_regularizer": null, "dtype": "float32", "kernel_regularizer": null, "name": "dense_1", "units": 500}}, {"class_name": "Dense", "config": {"use_bias": true, "trainable": true, "bias_initializer": {"class_name": "Zeros", "config": {}}, "kernel_initializer": {"class_name": "VarianceScaling", "config": {"distribution": "uniform", "mode": "fan_avg", "scale": 1.0, "seed": null}}, "activation": "softmax", "bias_constraint": null, "kernel_constraint": null, "bias_regularizer": null, "activity_regularizer": null, "dtype": "float32", "kernel_regularizer": null, "name": "dense_2", "units": 26}}]}, "keras_version": "2.3.1", "backend": "tensorflow"}